CosmicAI/Distributed_Learning/scaling_part2/output_model_mnist/best_model.pt (torch, 409448 bytes, 4 tensors)

linear_relu_stack.0.weight f4 [128, 784]
00000000: ce2c 1abc 9390 bfb9 2356 e23c 1ab2 b3bc
00000010: e5d5 66bc 918c f93c b797 acbb 27a3 bebc
00000020: 138a 3b3c ce19 cabc b37a 1abc 3b0a 05bd
00000030: 265f 5e3d 64f1 823c 9c44 e4bc 412a 1bbd
00000040: 2c68 10bd e7ce b8bc ccf1 aa3c bb43 033d
00000050: 0384 b63c 81b0 493b ee42 f6bb ca07 643c
00000060: 6a9c 653c 25b6 db3a 65b7 6ebc 6eaa f13c
00000070: b3c9 283c eefb de3b 9ca3 8c3c b710 be3c
00000080: b383 673c f105 1b3b 801e 043d 59cb 4c3d
00000090: 07be 713c f306 c23c f9a6 6a3d 077e d03d
000000a0: 8690 203e c0f7 e43d e7e6 e2bc b1fe bcbd
000000b0: ccf8 e9bc 2376 7abc 8b4c b73d d39c 153d
000000c0: c827 2e3d f206 cb3d 2105 d33d 308e 943d
000000d0: b808 e43b 2718 cf3c 17aa 1a3c c0a9 0c3c
000000e0: 57d3 08bd 17fe cebc 48bd 253d 2af1 9f3c
000000f0: f22c 993d fd75 983d 488f 863d 72b9 e33d
00000100: a95a b33d 6a38 403d 201e 003d 0d73 1e3d
00000110: d3e3 453d d6ed 263d db2f 9d3c d335 bebc
00000120: 690c 01bd 10d5 7abd 2fc3 553b 0a22 e33b
00000130: eab8 163d 847c 0a3b 2837 9a3c 91cb 3bbc
00000140: 5ad8 e93c 1aa2 263d b51e 86bc b18c c13c
00000150: fcc4 233c fcb3 cd3c 2313 4b3d 0b8f b83c
00000160: 8251 153c 8d64 8a3c bcfa 5c3c 1b20 a53d
00000170: 5b47 df3d 9798 553d fef3 b63d 891a 083e
00000180: e446 063e 991d af3d 32f8 df3d 38f7 b63c
00000190: 0669 a1bc 858f 693d 985f 9f3d d581 863d
000001a0: 0c3e 103d 7b02 45bc 9743 1ebd a5f9 8f3c
000001b0: f56c dbbc 8c62 373c e338 f33c 4a4a 9fbc
000001c0: c0d7 173c 9336 43bc e30f 9d3c 5219 c53d
000001d0: 348f d43d 78dd 943d 2df5 963d 45f2 003e
000001e0: e669 cd3d ece5 f23d 58e6 ce3d a258 8c3d
000001f0: 794e bc3d 6a59 07bb e9aa 5cbd 072c 1fbd
00000200: 91e8 e3bd 3ed9 b0bd fb76 a7bc bbd2 85bd
00000210: f096 b3bd 3fb0 11be 3d28 97bd cd26 c5bd
00000220: a999 e1bb 4e29 bfbb 025e 30bd 2a55 af3c
00000230: 5c2a 43bc 95b7 ce3c 6fb7 dd3b 6caf 9c3d
00000240: 2e51 823d beb7 563d 1d18 703d 2b3d 043d
00000250: 7501 033d e48c 1a3d 4e2f 143d 77e1 a73d
00000260: 7856 ed3b d343 433d 3251 a8bc a1bf 23bd
00000270: 2328 93bd dbc9 27be 437b 1abe 249b d8bd
00000280: bd06 c4bd 000b 0bbe 0e9d 1abe 37e3 e5bd
00000290: dc12 f0bd c6e3 2ebd da4e 59bd 81c9 91bb
000002a0: e1e2 4bbc 6c1b 813d 756e c4b9 7aae a73d
000002b0: e07d 8f3d 6f5e 35bd 7c47 063d 7ff6 6cbb
000002c0: 76f8 fd3c 4218 1a3b ffd9 a03c 6f07 cf3c
000002d0: 8726 973d 8b86 d13d 454d 483d 1399 4c3d
000002e0: d10e 903d 8b0e 703c 5eb6 40bd b9b2 d4bd
000002f0: f95b 1cbe ec0a c6bd 9947 2cbe 4806 26be
00000300: 4237 ddbd 0bd7 76bd a0a6 84bd 8d23 ddbc
00000310: d012 45bd 4f3d 413d 8e65 67bd fcb7 703c
00000320: 9615 20bd 0dd0 acbd 7ddf 3bbd 1af0 84bd
00000330: 5826 7bbc 854c 473c f799 363d 2bb1 6b3d
00000340: 6770 f13c d512 b83d b64f fb3d a0fa 1d3e
00000350: 3d6f 8d3d 1fb4 023d 02ed e53a 8e03 d0bd
00000360: 3cc2 cbbd fc95 22be 9de6 1fbe 5356 26be
00000370: 1d24 32be 1034 5bbd 4d21 73bd 0efa 19ba
00000380: ce45 f7bc dcf1 f9bc f866 43bd b3dc 213c
00000390: 2d0d 57bc 700e bebd 9aa8 adbd 6724 afbc
000003a0: 4ede bbbc 9b12 10bd 1caa 8bbc db7e b83c
000003b0: 0c30 623c 30b5 913d 763c df3d e50c c03d
000003c0: 7413 a33d cc7c 1e3d 3d69 e53b be95 00bc
000003d0: 5592 dcbc 6d7d d0bd a95c f6bd 6e3a 6dbe
000003e0: 496d 60be 6cb0 07be f8cb ebbc f0dc f83b
000003f0: 385b 4abd a3d5 e1bc f143 66bc 6230 233d
-0.009410096 -0.00036538075 0.027628964 -0.021935511 -0.014089082 0.030462535 -0.0052671093 -0.023271156
0.011446494 -0.024670508 -0.009428668 -0.03248046 0.05428996 0.015984245 -0.027864747 -0.037882093
-0.035255596 -0.022559596 0.02086725 0.032047015 0.022279745 0.003077537 -0.007515303 0.013917873
0.014014343 0.0016762657 -0.014570092 0.029500213 0.010301995 0.0068049347 0.017167859 0.02320133
0.014130521 0.0023654664 0.03225565 0.049998615 0.014754779 0.023684954 0.057288144 0.10180288
0.15680131 0.11180067 -0.027697993 -0.09228266 -0.028561018 -0.015286955 0.08950146 0.036526512
0.042518407 0.09913434 0.10303713 0.072536826 0.006959047 0.025280071 0.009439967 0.008585393
-0.033404674 -0.025267644 0.040463716 0.019524176 0.07479276 0.074443795 0.065702975 0.11119355
0.087575264 0.0469288 0.03127873 0.03868394 0.048312973 0.04075416 0.019187858 -0.023219025
-0.031505976 -0.06123835 0.003261756 0.006931548 0.03679744 0.0021131346 0.018825129 -0.011462108
0.028545547 0.040681936 -0.016372064 0.023626657 0.009995695 0.025110237 0.049578797 0.022529146
0.009113671 0.01689365 0.013487514 0.08062764 0.10902282 0.052147474 0.089332566 0.13291372
0.1311298 0.08550567 0.109360114 0.02233468 -0.0197034 0.057021637 0.07781905 0.06567732
0.035215423 -0.012024517 -0.038638677 0.017575094 -0.026785353 0.011192929 0.029690212 -0.019444603
0.009267747 -0.011914867 0.019172614 0.0962397 0.10378876 0.07268804 0.07370982 0.12592418
0.10029964 0.1186026 0.10102528 0.06852843 0.09194655 -0.002065266 -0.05387393 -0.038860347
-0.11128343 -0.08635186 -0.020442476 -0.06534334 -0.087690234 -0.14227389 -0.07380722 -0.09626541
-0.006884773 -0.0058337813 -0.043058403 0.021402914 -0.011911955 0.025234023 0.0067662518 0.076506466
0.0636314 0.052421324 0.058616746 0.032284897 0.03198381 0.03773202 0.036177926 0.08197301
0.007242974 0.047672104 -0.02054653 -0.039977673 -0.0718539 -0.16385596 -0.15086083 -0.10576466
-0.09571598 -0.13578415 -0.15098974 -0.112249784 -0.11722347 -0.04269769 -0.053053714 -0.00444907
-0.012444229 0.063040584 -0.0003746633 0.08187576 0.070064306 -0.044279512 0.032783017 -0.0036157665
0.031002264 0.0023512994 0.019635199 0.0252721 0.073803954 0.1023074 0.048901815 0.04995067
0.07034076 0.014651905 -0.04704892 -0.10385651 -0.1526946 -0.09670052 -0.16824187 -0.16213334
-0.10801555 -0.060263675 -0.06477094 -0.026994491 -0.048113644 0.04717761 -0.056493334 0.014692303
-0.039083086 -0.0843812 -0.045867432 -0.06491108 -0.015328966 0.01216424 0.044580426 0.057542007
0.029472543 0.08987967 0.12271063 0.15427637 0.06905983 0.031910058 0.0017541947 -0.10156928
-0.09949157 -0.15877527 -0.15615316 -0.16243868 -0.17396589 -0.053516448 -0.05935793 -0.0005873748
-0.030184653 -0.030510835 -0.04770562 0.009879279 -0.0131257 -0.092800975 -0.08479424 -0.021379663
-0.022933152 -0.035173994 -0.017048888 0.022521427 0.013805401 0.07114637 0.10900204 0.093774594
0.07962695 0.038693234 0.007001071 -0.007848201 -0.026925245 -0.10180173 -0.12029392 -0.2316682
-0.21916689 -0.13250893 -0.028783783 0.007594697 -0.0494034 -0.02756769 -0.014054284 0.039841063

linear_relu_stack.0.bias f4 [128]
00000000: e826 bdbd 59e0 c03d b91a cfbd ea23 80bc
00000010: 84f9 363e 643f e63b 290e 91bd 8047 8a3d
00000020: cb82 bdbd adff db3d 18e9 f13d e1f4 c0bc
00000030: e6c8 fd3d 1c3c 213e b507 fa3b 9572 ad3d
00000040: 6daa 323d e1f7 353d d797 c73d 94a4 dabd
00000050: 1430 023d ced1 22bc 872d 893b 7b76 c7bb
00000060: 06a1 1abc a23a 423d 0709 923c c6eb e23d
00000070: 2154 c73d f4fb 02bc fead 2a3d 8f8d 5b3e
00000080: 8bce e53d 6a25 323d 6521 603d 4e4a a93d
00000090: b1b0 033e 7c5f 77bd b786 1bbd 3b48 9f3d
000000a0: 9989 873d ac31 13be 6e87 9dbd ab99 603d
000000b0: 8d92 a33d 1a68 d53d 7395 c43c 6e74 fabd
000000c0: 0de7 ad3d 2db6 23bc b39f 3dbd 35c2 a1bd
000000d0: 09bb d33d 852b 473e ca5f 10bc 789d 303d
000000e0: fddc 2bbd 9f0b 01bd 804c 973d bd99 2f3d
000000f0: d216 81bd af2c 0fbe 8a2b a93c a94a 0f3c
00000100: 95bc c23c 160c ab3d 4934 103e 589c 6abd
00000110: f0f3 2c3e ec1d 1f3e b78a 4bbc f872 123e
00000120: b487 bdbd 7eb3 063d e999 e43d 0ead d93d
00000130: acac 153c 2657 0a3e 1ff6 debd fb96 eb3d
00000140: 9151 b6bc 23d3 223e 8175 5c3c 3719 0c3d
00000150: 9f71 38be f288 e23c 9dc5 df3d 8786 87bd
00000160: 3efb ef3c 995a edbd cf25 95bd 4196 fb3c
00000170: de1a 2c3d 2dfd 1cbc 0e61 2f3e d3c3 21bd
00000180: fc39 83bd 80a2 1ebd 0adf 1bbe 1300 30bc
00000190: 5ed2 013e 185c 7c3b a394 2fbd 5f29 1a3e
000001a0: 823b dd3d f0b7 9b3d c1c3 c33d 60c8 f83d
000001b0: ebb6 783d c8c4 d13d 31af 0fbd 8aa3 9139
000001c0: e2ea c03d 2d61 c63d c34c 2b3c 3e3b 0cbd
000001d0: 05e9 8abb 46be 8bbc 02a6 56bb 8398 1cbb
000001e0: 9f42 bf3c 5c09 de3d 1878 e5bb 1097 983d
000001f0: 9cc6 2abc 4420 97bd 1e93 c7bc d461 0bbd
-0.092359364 0.09417791 -0.10112519 -0.015642125 0.1786862 0.0070265997 -0.07082779 0.06751919
-0.092534624 0.10742126 0.11812037 -0.023554267 0.12391834 0.15745586 0.0076303133 0.084691204
0.043619562 0.04442585 0.09745758 -0.10675922 0.031784132 -0.009937717 0.0041863355 -0.006087122
-0.009437805 0.047419198 0.01782657 0.110801265 0.09732843 -0.007994641 0.041669838 0.21440719
0.112210356 0.043492712 0.054719348 0.082661256 0.12860371 -0.060393795 -0.03797027 0.07777449
0.066180415 -0.14374417 -0.07691847 0.05483405 0.07986937 0.104202464 0.023997044 -0.122292385
0.08491335 -0.009992165 -0.04629488 -0.0789837 0.103384085 0.19450195 -0.0088119 0.043118924
-0.041958798 -0.031505223 0.07387638 0.042871226 -0.06303181 -0.13981889 0.020650644 0.008745828
0.023771564 0.083519146 0.14082445 -0.057278007 0.1688993 0.15538758 -0.012423209 0.1430167
-0.09254399 0.03288602 0.111621685 0.10628711 0.009135406 0.13509807 -0.108867876 0.115034066
-0.02225569 0.15900855 0.0134557495 0.034203734 -0.18012093 0.027653191 0.109263636 -0.06617456
0.029294606 -0.11589546 -0.07282602 0.030711295 0.04201781 -0.009581846 0.17126867 -0.039493393
-0.06407544 -0.03872919 -0.15221801 -0.010742205 0.12677905 0.003850704 -0.04286636 0.15054844
0.10802366 0.07603443 0.095588215 0.121475935 0.06072132 0.10242611 -0.035079185 0.000277784
0.094198 0.096865036 0.010455313 -0.034236185 -0.004239204 -0.017058503 -0.0032752757 -0.0023894615
0.023347197 0.10841629 -0.0070028417 0.07450688 -0.010423329 -0.07379201 -0.024362143 -0.034028843

linear_relu_stack.3.weight f4 [10, 128]
00000000: ade9 763d 8e56 453c 5bee dd3c c375 6abe
00000010: 1845 b73d e6f0 4dbe 140d 053d eda5 083e
00000020: de0e d7bd b05e 40be 7e93 e03d 815f 0d3d
00000030: fb3b 373d 5eba 14be 226c 253e 75df dcbe
00000040: 9ee4 27be 3a26 4cbe f853 403e 3503 b7bd
00000050: 11d6 f6bd 89b2 a53c 2e19 283d 3c02 af3d
00000060: 096f c0bd 2822 c53d 7178 37bd c2e3 603e
00000070: 9537 a4be 2c5a 6abe 2d35 a4be 480e 183e
00000080: 5966 973a efbd 97be 9745 23bd c030 9abd
00000090: 892d 83be 5ea2 d93d ffe9 d7bd ed2f d4bd
000000a0: 0d3f e1bd 0252 9a3d de59 003e 2e51 edbd
000000b0: dde4 9bbe f6ba 633d 1776 52be 88de 6c3d
000000c0: a295 bb3d aa7a 403d 0622 263e 665e 17bd
000000d0: a93f f93b cb24 eabd f618 ef3d 44c4 babd
000000e0: 5698 73be a363 aa3b 1832 d83d 9c8d 2cbd
000000f0: 61ec a6bd 62c9 c3bd 1c3a 2ebe e79a 873d
00000100: af67 c33d 778e d43d 83de 80be a004 1b3e
00000110: d1e2 e9bd bbf3 0d3e 6f25 88be 8594 b8bd
00000120: 2d0c b8bc 0d0c 3cbc 7cb6 c1be 91ae f6bd
00000130: 7b01 ce3d 45b7 2e3e cbc0 2f3c 1fec 7bbe
00000140: 508b 4abd c5b8 033c 0949 4e3e 19e2 33be
00000150: 1eca 43be f5b4 62bd 3b80 3fbd d203 183d
00000160: 9952 b7bd d848 d73d cc53 45be 4644 2f3e
00000170: 9433 bebc ad46 adbd 5e44 a7bd bceb 193e
00000180: be08 a5bd 5990 18be 230a f03d aa9a 9abd
00000190: e828 27be eed8 303e f199 da3d c75b 97be
000001a0: 999f 82be feff 353e b6d2 9e3d 6771 92be
000001b0: 263c 213e 98b9 413e ec11 80be 7e49 efbd
000001c0: 1d49 943d 8778 8ebe 6115 603e 7a31 3fbd
000001d0: 8600 c73d 74c7 283e 2f05 4cbe 4453 153e
000001e0: d763 c83d c44c a0bd b636 8dbd 6df2 083d
000001f0: 1e08 1abe d507 923d 05b2 8abe ee9e 88be
00000200: ee4e 7fbe ba53 d83d d1af 70be 86dc dc3d
00000210: a38c 89be 7464 be3d 515c fd3d abd2 77be
00000220: 0288 a0bd 801e 0d3e f51a 80be bbdf dabc
00000230: 4b25 3f3e ed48 993d 9508 9bbd 87df e43d
00000240: d633 94be ad78 68be 771a 0f3c e040 15be
00000250: 6f4f 4b3e 808e 3dbe 214a 9dbe c598 6abe
00000260: 6ed8 2dbe 2cfd 87be 6689 fe3d 0c8a bcbc
00000270: 45ad 5bbe 5f88 4c3d c938 143e 58c3 ca3d
00000280: 6c67 66be 8559 803e 33aa 9e3d 670e c83e
00000290: ed1f 233e 841d 5abe 49fd 193e 1770 babd
000002a0: 8c32 79be f5e9 2cbe d47c 1bbc c603 713d
000002b0: 95e3 323e d1f6 2abe 1037 493d 9f7e 87be
000002c0: 7566 73be 8bff f23c 7c87 4ebd 76f5 57be
000002d0: fea3 3abe ed1a e73d 6d87 febc d279 ef3d
000002e0: 8f5e 5c3d 463d 6ebe 7341 093e 2f4d 4bbd
000002f0: f4bc ecbd bce4 cebd 13af 413e d6b7 7fbe
00000300: d592 77be c594 01be e7e9 81be b10c 5ebe
00000310: fb11 3fbe ceba a53e 5861 8fbd a544 92be
00000320: 7470 e23d 64a0 1b3c d69f 4b3e d7de 1d3e
00000330: f5b8 0e3c e359 2c3e fdaa 05be 98fc 0cbe
00000340: ddf5 9abe 316a 813e 5719 e03a 3987 71be
00000350: 20cb 6ebe 04b9 05be b997 cc3d 8e66 be3d
00000360: ed04 803c dce1 84be 643f 0e3d 258e 2ebe
00000370: 7c03 f33d 11d9 083e 65da 133e aa85 90be
00000380: 4931 a13d 5f36 153d 5051 2abe a1cd 20bc
00000390: 8b4e 01be 1552 143d 1929 8ebe bb38 033e
000003a0: de5c fb3d 41c6 57be 5faf efbd 3af6 d03d
000003b0: e827 343e 29fb 23be c6a3 153d 4020 bd3d
000003c0: 017a acbd 894c 4fbd e370 fe3d c8f3 97bd
000003d0: 14d9 1bbd 5988 b13d 97f8 183e 8ecb 7cbe
000003e0: 9782 823d 9f0d 57be 172c e0bc d9c3 72bd
000003f0: ed4a 68bd 4447 0c3e d9aa a2bd 4870 d53d
0.060281444 0.012044562 0.027091196 -0.22896485 0.089487255 -0.20111427 0.032483175 0.13344546
-0.105008826 -0.1878612 0.10965632 0.034514908 0.044734936 -0.14524218 0.1615453 -0.43139234
-0.16395804 -0.19936457 0.18782032 -0.089361586 -0.12052549 0.020226734 0.04103964 0.08545348
-0.09396178 0.096256554 -0.044792596 0.21961883 -0.32073656 -0.2288596 -0.3207182 0.14849198
0.0011550888 -0.29637095 -0.039861288 -0.075288296 -0.25620678 0.10626672 -0.10542678 -0.103607036
-0.10998354 0.07535173 0.12534282 -0.115877494 -0.30448046 0.05559822 -0.2055286 0.05782941
0.091593996 0.04699198 0.16223916 -0.03695526 0.007606466 -0.11432799 0.11674683 -0.09119466
-0.2378858 0.005199866 0.105564296 -0.042127237 -0.081505544 -0.09559895 -0.17014354 0.06621342
0.095412605 0.103787355 -0.25169763 0.15138483 -0.11420215 0.13862507 -0.2659106 -0.09012703
-0.022466743 -0.0114774825 -0.37834537 -0.12045015 0.10058876 0.170621 0.010727118 -0.24601792
-0.049449265 0.008039658 0.20145048 -0.17566718 -0.1912007 -0.055348355 -0.04675315 0.03711302
-0.08951301 0.10511941 -0.19270247 0.17115888 -0.023217954 -0.08460746 -0.08167337 0.15031332
-0.08058308 -0.14898814 0.117206834 -0.07549031 -0.16324198 0.17270252 0.10673893 -0.29562208
-0.25512388 0.17773435 0.07755034 -0.28602144 0.15745601 0.18918455 -0.25013673 -0.116839394
0.07240508 -0.2782633 0.21883155 -0.046678044 0.09716897 0.16482335 -0.19923852 0.14582545
0.09784668 -0.07827142 -0.06895201 0.03343432 -0.15042159 0.071304 -0.27088943 -0.26683754
-0.24932453 0.105628446 -0.23504569 0.10784249 -0.2686511 0.09296504 0.123711236 -0.24201457
-0.078384414 0.13781166 -0.25020567 -0.026718011 0.1866657 0.074846126 -0.07569996 0.11175447
-0.28945798 -0.22702284 0.008734337 -0.14575529 0.1985452 -0.1851139 -0.30720618 -0.2290984
-0.16977093 -0.26560342 0.124285504 -0.023015045 -0.21452816 0.04993474 0.14474787 0.0990054
-0.2250039 0.25068298 0.07747307 0.39073488 0.15930147 -0.21300322 0.15038027 -0.09103411
-0.24335688 -0.16886123 -0.009490211 0.05884149 0.17469628 -0.16695715 0.049124777 -0.26463792
-0.23769553 0.029662868 -0.050422177 -0.2108973 -0.1822662 0.112844326 -0.031070435 0.11693157
0.053801116 -0.23265561 0.13403873 -0.049634155 -0.115594774 -0.10102221 0.18914442 -0.24972472
-0.24177106 -0.12654407 -0.25373766 -0.21684529 -0.18659203 0.32369083 -0.07000989 -0.28567997
0.11056605 0.009498689 0.19885191 0.15417038 0.008711089 0.16831164 -0.13053508 -0.13768232
-0.30265704 0.2527633 0.0017097396 -0.2358674 -0.23319674 -0.13058859 0.09989876 0.092969045
0.015627349 -0.25953567 0.034728423 -0.17046411 0.11865899 0.13364054 0.1443878 -0.28226978
0.078707285 0.036428805 -0.16632581 -0.009814651 -0.12627618 0.036211092 -0.2776573 0.1281461
0.122735724 -0.21071722 -0.11703371 0.10203214 0.17593348 -0.16013779 0.03653314 0.09234667
-0.08421708 -0.0506101 0.12423875 -0.074195445 -0.03804882 0.086685844 0.1493858 -0.24687025
0.06372564 -0.2100129 -0.027364774 -0.059268806 -0.05671208 0.1369906 -0.07942743 0.104218066

linear_relu_stack.3.bias f4 [10]
00000000: 0a3e aabd b447 c83d 567d d93c 9bed 06bd
00000010: fbad 4dbc 885c 3e3e 4c36 3d3d 8921 82bc
00000020: 3eef 6bbd 3caa 08bd
-0.08312614 0.09779301 0.026549023 -0.032941442 -0.012553687 0.18589985 0.04619436 -0.015885131
-0.057601206 -0.033365473
